…
s with different\nscaling features?\n\nIt depends. For CNNs your input data needs to be consistent for good results. For classic computer vision approaches, could be, depending on what you want to do with it",
    "source": "QA-DSML-test.json",
    "score": 0.5,
    "domain": "Data Preprocessing"
  },
  {
    "id": "62797061",
    "question": "I'm testing Conv, GRU, LSTM and simple Dense and I don't get 70 to 80%\nMy network converges very fast and overfits in the first seasons, could it be the data?\nLayer (type)                 Output Shape              Param #\nlstm_46 (LSTM)               (None, 65, 32)            6272\n\ndropout_67 (Dropout)         (None, 65, 32)            0\n\nbidirectional_20 (Bidirectio (None, 65, 64)            16640\n\ndropout_68 (Dropout)         (None, 65, 64)            0\n\nlstm_48 (LSTM)               (None, 32)                12416\n\ndropout_69 (Dropout)         (None, 32)                0\n\nflatten_28 (Flatten)         (None, 32)                0\n\ndense_73 (Dense)             (None, 10)                330\n\nactivation_72 (Activation)   (None, 10)                0\n\ndense_74 (Dense)             (None, 1)                 11\n\nactivation_73 (Activation)   (None, 1)                 0\nTotal params: 35,669\nTrainable params: 35,669\nNon-trainable params: 0",
    "answer": "It's hard to say without knowing more about the data. Some of the possible solutions can be -\n\nUse a shallower network\nGet more training data\nMake sure your training and validation set comes from the same distribution",
    "source": "QA-DSML-validation.json",
    "score": 0.8,
    "domain": "Technical Implementation"
…
